…
es=15, bias=True)\n  )\n)\n\n\n\n\nLooking in indexes: https://pypi.org/simple, https://us-python.pkg.dev/colab-wheels/public/simple/\nCollecting torchinfo\n  Downloading torchinfo-1.8.0-py3-none-any.whl (23 kB)\nInstalling collected packages: torchinfo\nSuccessfully installed torchinfo-1.8.0\n\n\n==========================================================================================\nLayer (type:depth-idx)                   Output Shape              Param #\n==========================================================================================\nResNet9                                  [1, 15]                   --\n├─Sequential: 1-1                        [1, 64, 64, 64]           --\n│    └─Conv2d: 2-1                       [1, 64, 64, 64]           1,792\n│    └─BatchNorm2d: 2-2                  [1, 64, 64, 64]           128\n│    └─ReLU: 2-3                         [1, 64, 64, 64]           --\n├─Sequential: 1-2                        [1, 128, 32, 32]          --\n│    └─Conv2d: 2-4                       [1, 128, 64, 64]          73,856\n│    └─BatchNorm2d: 2-5                  [1, 128, 64, 64]          256\n│    └─ReLU: 2-6                         [1, 128, 64, 64]          --\n│    └─MaxPool2d: 2-7                    [1, 128, 32, 32]          --\n├─Sequential: 1-3                        [1, 128, 32, 32]          --\n│    └─Sequential: 2-8                   [1, 128, 32, 32]          --\n│    │    └─Conv2d: 3-1                  [1, 128, 32, 32]          147,584\n│    │    └─BatchNorm2d: 3-2             [1, 128, 32, 32]          256\n│    │    └─ReLU: 3-3                    [1, 128, 32, 32]          --\n│    └─Sequential: 2-9                   [1, 128, 32, 32]          --\n│    │    └─Conv2d: 3-4                  [1, 128, 32, 32]          147,584\n│    │    └─BatchNorm2d: 3-5             [1, 128, 32, 32]          256\n│    │    └─ReLU: 3-6                    [1, 128, 32, 32]          --\n├─Sequential: 1-4                        [1, 256, 16, 16]          --\n│    └─Conv2d: 2-10                      [1, 256, 32, 32]          295,168\n│    └─BatchNorm2d: 2-11                 [1, 256, 32, 32]          512\n│    └─ReLU: 2-12                        [1, 256, 32, 32]          --\n│    └─MaxPool2d: 2-13                   [1, 256, 16, 16]          --\n├─Sequential: 1-5                        [1, 512, 8, 8]            --\n│    └─Conv2d: 2-14                      [1, 512, 16, 16]          1,180,160\n│    └─BatchNorm2d: 2-15                 [1, 512, 16, 16]          1,024\n│    └─ReLU: 2-16                        [1, 512, 16, 16]          --\n│    └─MaxPool2d: 2-17                   [1, 512, 8, 8]            --\n├─Sequential: 1-6                        [1, 512, 8, 8]            --\n│    └─Sequential: 2-18                  [1, 512, 8, 8]            --\n│    │    └─Conv2d: 3-7                  [1, 512, 8, 8]            2,359,808\n│    │    └─BatchNorm2d: 3-8             [1, 512, 8, 8]            1,024\n│    │    └─ReLU: 3-9                    [1, 512, 8, 8]            --\n│    └─Sequential: 2-19                  [1, 512, 8, 8]            --\n│    │    └─Conv2d: 3-10                 [1, 512, 8, 8]            2,359,808\n│    │    └─BatchNorm2d: 3-11            [1, 512, 8, 8]            1,024\n│    │    └─ReLU: 3-12                   [1, 512, 8, 8]            --\n├─Sequential: 1-7                        [1, 15]                   --\n│    └─AdaptiveAvgPool2d: 2-20           [1, 512, 1, 1]            --\n│    └─Flatten: 2-21                     [1, 512]                  --\n│    └─Dropout: 2-22                     [1, 512]                  --\n│    └─Linear: 2-23                      [1, 15]                   7,695\n==========================================================================================\nTotal params: 6,577,935\nTrainable params: 6,577,935\nNon-trainable params: 0\nTotal mult-adds (G): 1.52\n==========================================================================================\nInput size (MB): 0.05\nForward/backward pass size (MB): 24.12\nParams size (MB): 26.31\nEstimated Total Size
…
