…
    (3): Linear(in_features=512, out_features=15, bias=True)
  )
)
....

....
Looking in indexes: https://pypi.org/simple, https://us-python.pkg.dev/colab-wheels/public/simple/
Collecting torchinfo
  Downloading torchinfo-1.8.0-py3-none-any.whl (23 kB)
Installing collected packages: torchinfo
Successfully installed torchinfo-1.8.0
....

....
==========================================================================================
Layer (type:depth-idx)                   Output Shape              Param #
==========================================================================================
ResNet9                                  [1, 15]                   --
├─Sequential: 1-1                        [1, 64, 64, 64]           --
│    └─Conv2d: 2-1                       [1, 64, 64, 64]           1,792
│    └─BatchNorm2d: 2-2                  [1, 64, 64, 64]           128
│    └─ReLU: 2-3                         [1, 64, 64, 64]           --
├─Sequential: 1-2                        [1, 128, 32, 32]          --
│    └─Conv2d: 2-4                       [1, 128, 64, 64]          73,856
│    └─BatchNorm2d: 2-5                  [1, 128, 64, 64]          256
│    └─ReLU: 2-6                         [1, 128, 64, 64]          --
│    └─MaxPool2d: 2-7                    [1, 128, 32, 32]          --
├─Sequential: 1-3                        [1, 128, 32, 32]          --
│    └─Sequential: 2-8                   [1, 128, 32, 32]          --
│    │    └─Conv2d: 3-1                  [1, 128, 32, 32]          147,584
│    │    └─BatchNorm2d: 3-2             [1, 128, 32, 32]          256
│    │    └─ReLU: 3-3                    [1, 128, 32, 32]          --
│    └─Sequential: 2-9                   [1, 128, 32, 32]          --
│    │    └─Conv2d: 3-4                  [1, 128, 32, 32]          147,584
│    │    └─BatchNorm2d: 3-5             [1, 128, 32, 32]          256
│    │    └─ReLU: 3-6                    [1, 128, 32, 32]          --
├─Sequential: 1-4                        [1, 256, 16, 16]          --
│    └─Conv2d: 2-10                      [1, 256, 32, 32]          295,168
│    └─BatchNorm2d: 2-11                 [1, 256, 32, 32]          512
│    └─ReLU: 2-12                        [1, 256, 32, 32]          --
│    └─MaxPool2d: 2-13                   [1, 256, 16, 16]          --
├─Sequential: 1-5                        [1, 512, 8, 8]            --
│    └─Conv2d: 2-14                      [1, 512, 16, 16]          1,180,160
│    └─BatchNorm2d: 2-15                 [1, 512, 16, 16]          1,024
│    └─ReLU: 2-16                        [1, 512, 16, 16]          --
│    └─MaxPool2d: 2-17                   [1, 512, 8, 8]            --
├─Sequential: 1-6                        [1, 512, 8, 8]            --
│    └─Sequential: 2-18                  [1, 512, 8, 8]            --
│    │    └─Conv2d: 3-7                  [1, 512, 8, 8]            2,359,808
│    │    └─BatchNorm2d: 3-8             [1, 512, 8, 8]            1,024
│    │    └─ReLU: 3-9                    [1, 512, 8, 8]            --
│    └─Sequential: 2-19                  [1, 512, 8, 8]            --
│    │    └─Conv2d: 3-10                 [1, 512, 8, 8]            2,359,808
│    │    └─BatchNorm2d: 3-11            [1, 512, 8, 8]            1,024
│    │    └─ReLU: 3-12                   [1, 512, 8, 8]            --
├─Sequential: 1-7                        [1, 15]                   --
│    └─AdaptiveAvgPool2d: 2-20           [1, 512, 1, 1]            --
│    └─Flatten: 2-21                     [1, 512]                  --
│    └─Dropout: 2-22                     [1, 512]                  --
│    └─Linear: 2-23                      [1, 15]                   7,695
==========================================================================================
Total params: 6,577,935
Trainable params: 6,577,935
Non-trainable params: 0
Total mult-adds (G): 1.52
==========================================================================================
Input size (MB): 0.05
Forward/backward pass size (MB): 24.12
Params size (MB): 26.31
Estimated Total Size (MB): 50.48
…
